final-models/final_model_depr.tflite (tflite, 374008 bytes, 7 tensors)

Sequential/FC_Dense_Layer/BiasAdd/ReadVariableOp f4 [128]
-0.016319633 -0.054458812 -0.021534374 -0.09173742 -0.048859037 -0.03572191 -0.069905 0.006839159
-0.05144976 -0.057759684 -0.009039286 -0.036202304 -0.01126406 -0.025097247 -0.042288236 -0.06541
-0.01311135 -0.04814938 -0.07819474 -0.066412814 -0.014591731 -0.0898778 -0.040003367 -0.0107669
-0.011570244 -0.07234898 -0.09271143 -0.004148272 -0.044189088 -0.07765021 -0.028946754 -0.073842056
-0.017111316 -0.038519353 -0.015668597 -0.034936722 -0.031451207 -0.03035039 -0.023115141 -0.009840111
-0.03921352 -0.016959693 -0.03926813 -0.019052686 -0.023530541 -0.08945045 -0.0081958575 -0.04043918
-0.036425013 -0.074202985 -0.08391578 -0.021947347 -0.009224398 -0.041178737 -0.049119696 -0.07319692
-0.0017375338 -0.0322631 -0.05516203 -0.007662456 -0.01733311 -0.025210494 -0.0673951 -0.060929585
-0.01336575 -0.012145299 -0.017574672 -0.012740807 -0.045653947 -0.061460126 -0.0016481722 -0.03932589
-0.038325563 -0.043388966 -0.04593358 -0.046968956 -0.029311437 -0.032261886 -0.013127826 -0.045137346
-0.04081342 -0.024997221 0.017471913 -0.07088833 -0.08833215 -0.023196729 -0.04826918 -0.019432494
-0.011494422 -0.026817234 -0.04705358 -0.035081696 -0.092292584 -0.01354433 -0.04625698 -0.04449436
-0.046563413 -0.023320785 -0.07586095 -0.028668761 -0.054417152 -0.008034373 -0.034274522 -0.06128813
-0.076152496 -0.045694053 0.0063513117 -0.05533658 -0.06683226 -0.0795567 -0.0054117586 -0.06257497
-0.08024564 -0.06399505 -0.030432671 -0.042159997 -0.029156126 -0.012741107 -0.022843102 -0.019925123
-0.05950783 -0.02714203 -0.08859511 -0.04893652 -0.050223302 -0.066634156 -0.021594865 -0.0062943934
00000000: c0b0 85bc 3410 5fbd db68 b0bc d4e0 bbbd
00000010: 6a20 48bd 2351 12bd 5a2a 8fbd 061b e03b
00000020: fcbc 52bd 6b95 6cbd 8319 14bc de48 14bd
00000030: e48c 38bc be98 cdbc 6e36 2dbd aef5 85bd
00000040: fdd0 56bc 4938 45bd 9024 a0bd 7103 88bd
00000050: 2812 6fbc da11 b8bd 92da 23bd a767 30bc
00000060: 1f91 3dbc b42b 94bd 7ddf bdbd 3aee 87bb
00000070: 9eff 34bd 1307 9fbd be21 edbc 813a 97bd
00000080: 082d 8cbc 78c6 1dbd 6e5b 80bc cf19 0fbd
00000090: fbd2 00bd 62a1 f8bc f75b bdbc 6b38 21bc
000000a0: 5b9e 20bd 0eef 8abc 9ed7 20bd 6114 9cbc
000000b0: 1fc3 c0bc cc31 b7bd eb47 06bc 8ea3 25bd
000000c0: 6532 15bd bcf7 97bd 09dc abbd ecca b3bc
000000d0: ee21 17bc 09ab 28bd bc31 49bd 44e8 95bd
000000e0: f6bd e3ba 5026 04bd 95f1 61bd 5715 fbbb
000000f0: 2bfe 8dbc 3d86 cebc 7106 8abd 4d91 79bd
00000100: 05fc 5abc 14fd 46bc c2f8 8fbc d1be 50bc
00000110: a2ff 3abd 9dbd 7bbd 7b07 d8ba 2f14 21bd
00000120: 44fb 1cbd a1b8 31bd d924 3cbd 8562 40bd
00000130: 8a1e f0bc 0a25 04bd 1816 57bc f0e1 38bd
00000140: f92b 27bd f9c6 ccbc 4221 8f3c e72d 91bd
00000150: 7ce7 b4bd 1107 bebc e7b5 45bd e530 9fbc
00000160: 1a53 3cbc d1af dbbc 41bb 40bd d3b1 0fbd
00000170: e503 bdbd 0ae9 5dbc f677 3dbd b83f 36bd
00000180: 47b9 3ebd 3b0b bfbc fc5c 9bbd c0da eabc
00000190: 85e4 5ebd 9aa2 03bc 7163 0cbd 4309 7bbd
000001a0: d7f5 9bbd b029 3bbd aa1e d03b 9ca8 62bd
000001b0: 5adf 88bd a0ee a2bd 1f55 b1bb 4e27 80bd
000001c0: d357 a4bd d60f 83bd f04d f9bc f6af 2cbd
000001d0: d4d8 eebc 13c0 50bc 7521 bbbc 033a a3bc
000001e0: 7bbe 73bd f658 debc 5a71 b5bd a971 48bd
000001f0: f3b6 4dbd 7d77 88bd b7e7 b0bc 3341 cebb

Sequential/Conv1D_Layer/BiasAdd/ReadVariableOp f4 [16]
-0.13737684 -0.087494954 0.0032734328 -0.08965062 -0.06708487 -0.07857161 -0.02744635 -0.08358185
0.025142316 -0.062987424 0.0 -0.016125932 0.003543312 0.0 -0.010766632 0.036106683
00000000: 84ac 0cbe 8e30 b3bd 1787 563b bf9a b7bd
00000010: cb63 89bd 27ea a0bd 2bd7 e0bc f62c abbd
00000020: 42f7 cd3c 8dff 80bd 0000 0000 881a 84bc
00000030: e936 683b 0000 0000 8766 30bc 9ae4 133d

Sequential/Batch_Normalization/batchnorm/sub f4 [16]
-0.52461123 -0.31463617 -0.7985595 -0.02171486 -0.2583637 -0.2806177 -0.3349348 0.008900713
-0.3933212 -0.15943329 -0.005704072 -0.5421936 -0.7577473 -0.012802769 -0.26917753 -0.33208424
00000000: ec4c 06bf fe17 a1be 656e 4cbf 5de3 b1bc
00000010: 3f48 84be 20ad 8fbe 937c abbe 4cd4 113c
00000020: 6561 c9be 7b42 23be 39e9 babb 33cd 0abf
00000030: bafb 41bf b5c2 51bc a3d1 89be f206 aabe

Sequential/Batch_Normalization/batchnorm/mul f4 [16]
4.206283 16.520668 1.0332922 29.136305 1.9722264 1.4498941 3.265409 30.082964
0.48391274 18.905125 31.622776 1.3487653 1.3654987 31.622776 2.2664814 2.4093122
00000000: df99 8640 542a 8441 eb42 843f 2717 e941
00000010: ea71 fc3f 2196 b93f 76fc 5040 e9a9 f041
00000020: 69c3 f73e b23d 9741 72fb fc41 57a4 ac3f
00000030: a9c8 ae3f 72fb fc41 080e 1140 2c32 1a40

Sequential/FC_Dense_Layer/MatMul f4 [128, 720]
-0.0818166 -0.018097948 -0.069189176 0.11507264 -0.066482194 0.019393403 -0.02956999 0.022676928
0.041107215 -0.05031601 0.013115219 0.06402544 -0.102345765 0.02371749 0.14691857 0.03572467
-0.05401528 -0.067793235 0.14463331 0.016991736 0.10042448 -0.019948328 -0.079152144 0.09047834
0.16223924 0.012842259 0.015660197 0.13486046 0.038247135 0.08369746 0.034129173 0.07605217
0.13510804 0.058535144 0.12504175 -0.11497021 0.14570172 0.13055722 -0.07763646 0.0873681
0.035789825 0.10535424 -0.034407306 0.19091181 0.15255708 0.082986124 -0.013008884 -0.08855138
0.17558785 0.054527912 0.124327764 0.010599097 0.112530135 0.0718926 0.24562386 0.0490386
-0.063273504 -0.14260632 0.04616432 -0.07229273 0.042714447 -0.009120886 -0.049668208 -0.079974994
-0.046738315 0.06215485 -0.16812423 -0.02507881 -0.19756098 -0.18427077 0.11855643 0.04596042
-0.0050975005 0.051412206 0.06514586 -0.08743273 -0.11932792 -0.05514198 -0.034763917 0.028620198
-0.1554593 0.03577588 -0.107088536 -0.10383324 -0.037120223 -0.007557486 -0.030620782 0.11581835
-0.12822014 -0.13270913 0.0048363637 -0.17958865 -0.054916028 0.03150345 -0.08995325 -0.14553788
-0.024977548 -0.034053426 -0.015279381 0.08636203 0.034674957 -0.03832654 0.052557647 -0.07585978
-0.10322962 -0.01145595 0.015170797 -0.18970643 -0.21733664 0.05618798 -0.09009192 -0.043531485
0.05481908 -0.032175604 -0.04510612 -0.023551838 -0.07764495 -0.021246497 0.019231545 -0.037862804
0.026650537 0.07418828 -0.052248016 -0.0056818714 -0.08444995 0.050796833 0.071511276 0.09334616
-0.08507305 0.056857575 0.01330761 -0.019829104 -0.059058283 0.01887695 -0.109624624 0.090372644
0.023895448 0.013748722 0.04520666 0.016310735 0.0014594656 0.09455026 0.14952265 0.11107946
0.067948945 0.08601689 -0.022647958 -0.052070726 -0.019596212 0.024793511 0.11398235 0.030939363
0.08418337 0.05053038 -0.075671315 0.061364923 0.0744982 0.01784768 -0.024422726 -0.049779546
-0.02275734 0.061253197 0.09027746 -0.021090774 0.034414873 0.042168353 0.09791255 0.038688634
0.04723229 -0.009907018 -0.039616417 -0.08677484 0.013474679 0.018146861 -0.11883273 -0.026400007
-0.06251208 -0.111823656 -0.031296898 0.043436974 0.018381601 -0.067018405 0.033029348 -0.044061877
-0.07196706 0.07474918 0.005179893 -0.021008307 -0.10264225 0.005829877 -0.08054135 -0.0054020393
-0.03359019 0.010913607 -0.06593079 -0.013863145 0.07115241 -0.09572072 -0.014565011 0.026611453
-0.093449086 0.0820019 -0.0059573576 0.010878923 0.03753246 0.04541394 -0.03228453 0.08507694
0.09285939 0.04690331 0.03676222 -0.00646888 -0.040642288 0.032940123 -0.004389593 0.093935706
0.03306364 0.123937525 -0.0022944047 0.13829413 0.019104362 0.081862114 0.08734874 0.072004855
0.089330524 0.15606935 0.03329452 -0.053787846 0.034820806 0.15319903 0.06886985 0.005075427
0.052722562 -0.044003464 0.11072826 -0.06510758 -0.08490544 -0.015878491 -0.10175129 -0.08761478
0.06834493 -0.015207253 -0.12898208 0.06398173 -0.091410264 -0.065284625 0.092434414 0.0010332012
0.024001133 0.034666263 -0.0056521976 -0.0755181 0.017803129 -0.025764741 -0.09489913 0.056202985
00000000: 768f a7bd 2642 94bc 0eb3 8dbd 34ab eb3d
00000010: d127 88bd eade 9e3c c33c f2bc f7c4 b93c
00000020: 0a60 283d 2918 4ebd 37e1 563c c51f 833d
00000030: a89a d1bd 2e4b c23c d271 163e 0854 123d
00000040: 203f 5dbd 2ed7 8abd c11a 143e 4132 8b3c
00000050: 5aab cd3d ad6a a3bc 851a a2bd b54c b93d
00000060: 0b22 263e 5768 523c d049 803c dc18 0a3e
00000070: 07a9 1c3d 9369 ab3d 08cb 0b3d 3dc1 9b3d
00000080: c359 0a3e 8cc2 6f3d f20a 003e 8075 ebbd
00000090: d532 153e cbb0 053e ddff 9ebd 0cee b23d
000000a0: 5a98 123d f7c3 d73d adee 0cbd 637e 433e
000000b0: ec37 1c3e a1f4 a93d 3723 55bc 6d5a b5bd
000000c0: 4dcd 333e a958 5f3d 8e9f fe3d d6a7 2d3c
000000d0: 3376 e63d 6d3c 933d d284 7b3e b3dc 483d
000000e0: 8a95 81bd 6407 12be cc16 3d3d 360e 94bd
000000f0: 58f5 2e3d c56f 15bc e470 4bbd eec9 a3bd
00000100: ad70 3fbd 1696 7e3d c228 2cbe 1472 cdbc
00000110: 6d4d 4abe 7ab1 3cbe b7cd f23d fe40 3c3d
00000120: ef08 a7bb 9b95 523d 316b 853d ee0f b3bd
00000130: 3262 f4bd 8fdc 61bd 9c64 0ebd e874 ea3c
00000140: b930 1fbe bb89 123d 3c51 dbbd 86a6 d4bd
00000150: 600b 18bd caa4 f7bb 6fd8 fabc 2c32 ed3d
00000160: 244c 03be e7e4 07be 5c7a 9e3b 16e6 37be
00000170: a1ef 60bd c309 013d 6939 b8bd e207 15be
00000180: b79d ccbc 9b7b 0bbd 5e56 7abc 93de b03d
00000190: 5407 0e3d 4afc 1cbd b046 573d 5f5c 9bbd
000001a0: 0d6a d3bd bdb1 3bbc ef8e 783c 6742 42be
000001b0: 7f8d 5ebe 5e25 663d 1d82 b8bd 124e 32bd
000001c0: f989 603d 91ca 03bd 32c1 38bd c9ef c0bc
000001d0: 5104 9fbd 220d aebc 798b 9d3c 0716 1bbd
000001e0: 3a52 da3c 06f0 973d 0402 56bd fe2e babb
000001f0: 18f4 acbd 5710 503d 8174 923d 462c bf3d
00000200: c73a aebd 7de3 683d 2908 5a3c a570 a2bc
00000210: 19e7 71bd d5a3 9a3c e082 e0bd 4b15 b93d
00000220: 63c0 c33c 5242 613c 9e2a 393d 179e 853c
00000230: 8a4b bf3a 91a3 c13d 771c 193e a17d e33d
00000240: d128 8b3d a029 b03d 3688 b9bc 1d48 55bd
00000250: 3c88 a0bc c31b cb3c 946f e93d 8c74 fd3c
00000260: 5568 ac3d f2f8 4e3d 90f9 9abd c959 7b3d
00000270: 8392 983d 4c35 923c 2b12 c8bc a3e5 4bbd
00000280: 9a6d babc a2e4 7a3d 64e3 b83d 8fc6 acbc
00000290: 9cf6 0c3d b9b8 2c3d 6086 c83d f977 1e3d
000002a0: a576 413d 0c51 22bc d344 22bd 02b7 b1bd
000002b0: e6c4 5c3c baa8 943c 935e f3bd d444 d8bc
000002c0: 5506 80bd cd03 e5bd 2d31 00bd f8ea 313d
000002d0: 0395 963c f240 89bd c849 073d 3a7a 34bd
000002e0: 7763 93bd 1916 993d 18bc a93b 9d19 acbc
000002f0: 1a36 d2bd 8e08 bf3b ddf2 a4bd 9703 b1bb
00000300: de95 09bd fcce 323c b906 87bd 3f22 63bc
00000310: 5bb8 913d 3a09 c4bd 15a2 6ebc 4300 da3c
00000320: 3c62 bfbd 9df0 a73d f035 c3bb 833d 323c
00000330: a3bb 193d f803 3a3d c93c 04bd d23c ae3d
00000340: 102d be3d af1d 403d fb93 163d e6f8 d3bb
00000350: 8778 26bd 39ec 063d 93d6 8fbb 5d61 c03d
00000360: bd6d 073d f5d2 fd3d b95d 16bb fa9c 0d3e
00000370: c080 9c3c 53a7 a73d e5e3 b23d 4877 933d
00000380: ecf2 b63d a5d0 1f3e d65f 083d a550 5cbd
00000390: 43a0 0e3d 35e0 1c3e a30b 8d3d c44f a63b
000003a0: 9df3 573d fa3c 34bd 7fc5 e23d 1f57 85bd
000003b0: e7e2 adbd 9c13 82bc fb62 d0bd 616f b3bd
000003c0: 6df8 8b3d d827 79bc e113 04be da08 833d
000003d0: 4e35 bbbd f2b3 85bd 414e bd3d 7b6c 873a
000003e0: 069e c43c 36fe 0d3d 1236 b9bb 3ca9 9abd
000003f0: ded7 913c 9410 d3bc 7a5a c2bd 1a35 663d

Sequential/Output_Layer/MatMul f4 [1, 128]
0.034902994 -0.12904832 0.043870278 0.120680265 0.015091061 0.0636538 0.18061137 -0.02402459
-0.08235123 0.056885067 -0.013497588 -0.011000629 -0.018514058 -0.03862573 0.034764886 -0.01784855
-0.021337204 0.047034975 0.05819623 0.02621149 -0.017466893 -0.017396836 0.065776 -0.024516596
-0.024927504 0.08963411 0.04725642 0.032057706 0.04303214 0.13173647 -0.04472234 0.059630346
0.029318448 0.013218122 -0.03169534 -0.025925517 0.06883415 0.13251619 -0.020049954 -0.021957465
0.0312334 -0.0068450673 -0.028433615 -0.02258015 0.03380839 0.15820879 0.029278293 0.018093932
-0.015668403 0.08325277 0.042003825 0.027894873 -0.017196862 -0.027108543 0.094966866 -0.12126031
-0.027335152 0.024508832 0.026112765 -0.021710701 0.030260468 -0.043404423 0.092026435 0.05411262
-0.011918049 0.051620502 -0.026259685 -0.009588217 0.028078314 -0.14803948 0.0482826 0.046745777
0.028272932 -0.0858882 0.054363325 0.19991145 -0.0070557934 0.024058156 -0.04504502 0.036103394
-0.036473524 0.041541014 -0.02883039 -0.07797769 0.07161111 -0.014172662 -0.04671097 -0.02469434
-0.021699734 0.04217322 -0.02438479 0.040489346 -0.011700832 -0.013180292 -0.012509189 -0.09460813
-0.010799354 0.03473523 0.08386975 0.014843395 0.038249686 0.03289159 -0.02044239 -0.020482464
0.046872195 0.04940867 -0.028068561 -0.009056773 -0.09169536 -0.17463875 0.03631658 -0.08772276
-0.037301283 0.05875847 -0.056010105 -0.031897083 -0.022220097 -0.025349347 0.044954136 -0.0048538134
-0.03740399 -0.017771503 -0.10684475 0.05322231 0.1681162 -0.10066395 -0.011747167 -0.016035007
00000000: 71f6 0e3d 3e25 04be 52b1 333d 3727 f73d
00000010: 7f40 773c ec5c 823d 30f2 383e 38cf c4bc
00000020: c3a7 a8bd 5100 693d fd24 5dbc fb3b 34bc
00000030: cbaa 97bc 0336 1ebd a065 0e3d 1f37 92bc
00000040: 5ccb aebc bfa7 403d 2c5f 6e3d 7bb9 d63c
00000050: bb16 8fbc cf83 8ebc 91b5 863d 07d7 c8bc
00000060: c434 ccbc 1792 b73d f38f 413d f14e 033d
00000070: 7842 303d ede5 063e c62e 37bd f33e 743d
00000080: 3e2d f03c d290 583c f9d2 01bd c061 d4bc
00000090: ebf8 8c3d 53b2 073e cd3f a4bc 24e0 b3bc
000000a0: 30dd ff3c 964c e0bb 9ded e8bc 02fa b8bc
000000b0: ab7a 0a3d 7c01 223e 08d9 ef3c ba39 943c
000000c0: 065b 80bc 6e80 aa3d 340c 2c3d ca83 e43c
000000d0: 6fe0 8cbc bc12 debc fd7d c23d 5357 f8bd
000000e0: f8ed dfbc bfc6 c83c 70ea d53c a4da b1bc
000000f0: cde4 f73c d6c8 31bd 5b78 bc3d 32a5 5d3d
00000100: ec43 43bc 0570 533d 8d1e d7bc e617 1dbc
00000110: 7e04 e63c a997 17be fac3 453d 8078 3f3d
00000120: a39c e73c 27e6 afbd 14ac 5e3d 96b5 4c3e
00000130: 4934 e7bb 9c15 c53c 2081 38bd 27e1 133d
00000140: 4365 15bd e926 2a3d b62d ecbc c4b2 9fbd
00000150: d8a8 923d 7434 68bc 0154 3fbd c94b cabc
00000160: a4c3 b1bc d4bd 2c3d 9cc2 c7bc 28d8 253d
00000170: d9b4 3fbc 27f2 57bc 57f3 4cbc e8c1 c1bd
00000180: c6ef 30bc 8746 0e3d e7c3 ab3d b631 733c
00000190: b4ab 1c3d 55b9 063d cd76 a7bc d7ca a7bc
000001a0: 0ffd 3f3d bf60 4a3d 0af0 e5bc dc62 14bc
000001b0: c7ca bbbd 80d4 32be b2c0 143d fea7 b3bd
000001c0: 3bc9 18bd b9ac 703d da6a 65bd 84a6 02bd
000001d0: ec06 b6bc 6fa9 cfbc d421 383d bd0c 9fbb
000001e0: ed34 19bd 8b95 91bc 6cd1 dabd a3ff 593d
000001f0: a726 2c3e e728 cebd 3177 40bc d95b 83bc

Sequential/Conv1D_Layer/Conv1D f4 [16, 1, 3, 1]
0.37017578 0.3979269 -1.6607006 0.106470674 0.13401973 -0.6433856 1.0623235 1.0838327
1.0778924 -1.5252502 -0.6438757 0.08613752 -0.68230593 0.7091023 -0.13676195 -1.0753001
0.9575412 -0.88947105 0.5485485 -0.5533676 -0.922266 -1.5259323 -1.4006532 0.06949035
1.3469582 -0.26668832 1.5519023 -0.95476526 -0.12578595 0.090969056 -0.37910843 -0.5387252
-0.9876498 -0.5559065 1.0162369 0.88087064 0.83096135 0.9242078 0.61375374 -0.4636998
-0.08369275 -0.061883457 -0.18833372 -1.115 0.6109985 -0.6138986 -0.6882098 0.6356912
00000000: ae87 bd3e 13bd cb3e d691 d4bf 4c0d da3d
00000010: 783c 093e ebb4 24bf 37fa 873f 08bb 8a3f
00000020: 61f8 893f 663b c3bf 0ad5 24bf de68 b03d
00000030: 9aab 2ebf ba87 353f 530b 0cbe 6fa3 89bf
00000040: 6c21 753f 60b4 63bf ad6d 0c3f 80a9 0dbf
00000050: a019 6cbf c051 c3bf 9b48 b3bf f550 8e3d
00000060: 2069 ac3f 5f8b 88be bca4 c63f 7f6b 74bf
00000070: 08ce 00be fc4d ba3d 801a c2be e5e9 09bf
00000080: 9ed6 7cbf e34f 0ebf 0d14 823f bd80 613f
00000090: e2b9 543f e298 6c3f f71e 1d3f 0f6a edbe
000000a0: 1b67 abbd 8279 7dbd 8eda 40be 52b8 8ebf
000000b0: 666a 1c3f 7528 1dbf 842e 30bf a9bc 223f
