final-models/final_model_mdd.tflite (tflite, 16508 bytes, 5 tensors)

Sequential_MLP/Dense_2/BiasAdd/ReadVariableOp f4 [40]
0	0xbbaaba78	-0.005210217
1	0xbbca1227	-0.0061667147
2	0xbcbbee98	-0.022940919
3	0x3d50fad3	0.051020455
4	0xbca718a1	-0.020397486
5	0x3d05338f	0.032519873
6	0x3d6f7f00	0.058470726
7	0xbc518c64	-0.012789819
8	0xbc9bb7b1	-0.01900849
9	0x3d79c2a7	0.06097665
10	0x3ce103e6	0.02746768
11	0x3d6ee4e9	0.058323774
12	0xbd008bae	-0.03138321
13	0x3c42f00d	0.011898053
14	0xbb369168	-0.0027857665
15	0x3cfa53a7	0.030557467
16	0xbc8e09ee	-0.01733872
17	0xbbf0241e	-0.0073285243
18	0xbc9391aa	-0.018013794
19	0xbc62fd93	-0.013854402
20	0x3b44bb7e	0.003001898
21	0x3c2bb1b4	0.010479379
22	0x3d50592d	0.050866295
23	0x3d0777f1	0.03307337
24	0x3c0234e0	0.007947177
25	0xbc11a5bf	-0.008889615
26	0x39defb05	0.00042530164
27	0xbc66610c	-0.014061224
28	0xbb0e9a3c	-0.0021759411
29	0x3b8ee439	0.0043607024
30	0xbba28943	-0.0049602105
31	0x3c6d4db5	0.014483859
32	0xbb90b171	-0.004415684
33	0xbb02e917	-0.0019975358
34	0x3c3516de	0.011052815
35	0x3d22093b	0.039559584
36	0x3d496439	0.049167845
37	0xbc80a1a5	-0.015702078
38	0xbc4646d1	-0.012101845
39	0x3c1c399b	0.009535219

Sequential_MLP/Dense_1/BiasAdd/ReadVariableOp f4 [40]
0	0x3d008ff8	0.0313873
1	0x3bae7034	0.0053234342
2	0xbbf8f2b5	-0.0075972923
3	0x3cca3aea	0.024686296
4	0x3b7a47f6	0.0038189865
5	0x3d5b2eb9	0.053511355
6	0xbc108d47	-0.008822746
7	0x3c0c2117	0.008552811
8	0x3a080c97	0.00051898643
9	0x3d0c7d6e	0.034299307
10	0xbabd8c8b	-0.0014461441
11	0x3c63a992	0.013895409
12	0xba8a2553	-0.0010539688
13	0x3d9d9006	0.07693486
14	0x3bd2c558	0.0064322166
15	0x3d433bd8	0.047664493
16	0x3a7362e9	0.0009284453
17	0xbc7f5dc9	-0.015586325
18	0x3c6e0047	0.014526433
19	0xbc67ca6e	-0.014147384
20	0x3c099f6d	0.0083998265
21	0xbd2a1888	-0.0415273
22	0xbb652e5c	-0.003497026
23	0x3d1887ea	0.037238993
24	0xbc15d037	-0.009143881
25	0x3bf6987e	0.0075255027
26	0xbc23c751	-0.009996251
27	0x3bb4fbd8	0.005523186
28	0x3c341a94	0.010992665
29	0xbd08f44f	-0.033436116
30	0x3c908e1b	0.017645886
31	0x3cf0ec55	0.029409567
32	0xbc33a60d	-0.010964883
33	0x3d163b2a	0.036677517
34	0xbc70e15d	-0.014702168
35	0x3d486a81	0.048929695
36	0xb906eaa0	-0.0001286664
37	0x3d40e27f	0.047091004
38	0x3c8a1f32	0.016860578
39	0xbb5dd939	-0.0033851399

Sequential_MLP/Dense_1/MatMul f4 [40, 47]
0	0xbe47268c	-0.19448298
1	0x3d8c9c8b	0.06865796
2	0x3e360496	0.17775187
3	0xbe609e03	-0.21935277
4	0xbd74d44b	-0.05977277
5	0xbe7920d7	-0.24328934
6	0x3e6e4180	0.23267174
7	0x3ccdcdc3	0.025122529
8	0x3e5b7e0c	0.21434802
9	0x3e318a17	0.17337833
10	0x3d216597	0.039403524
11	0xbd43ca87	-0.047800567
12	0x3e88dc10	0.26730394
13	0x3dfea451	0.124336846
14	0x3e05500f	0.13018821
15	0xbd2934a5	-0.04130997
16	0xbce1cbe5	-0.027563045
17	0xbe71baea	-0.23606458
18	0xbe8c8b37	-0.27449962
19	0x3db049e8	0.086078465
20	0x3c5bc8ac	0.013414543
21	0xbdcbf16c	-0.09958157
22	0xbdceb07f	-0.10092258
23	0xbe368def	-0.17827581
24	0x3e5ae9de	0.21378276
25	0x3d8e7216	0.06955354
26	0xbe5ae319	-0.21375693
27	0xbde57d47	-0.112055354
28	0x3a6f9b88	0.00091403024
29	0xbdfacd40	-0.122461796
30	0x3d4586d6	0.048224293
31	0xbdb05aff	-0.08611106
32	0xbe0d1ac7	-0.13779746
33	0x3e84f2db	0.25966534
34	0xbd601620	-0.0547086
35	0xbdd794d5	-0.10526434
36	0xbd9fd6c1	-0.07804633
37	0xbe018042	-0.12646583
38	0x3e68d895	0.2273887
39	0xbe5f30d1	-0.21795966
40	0x3e4148a1	0.18875362
41	0xbdfc33d6	-0.123145744
42	0x3e8526d4	0.26006186
43	0xbe327cc0	-0.17430401
44	0xbcb47651	-0.022029074
45	0xbdcb02a2	-0.099126115
46	0xbd061713	-0.03273685
47	0x3e5441d5	0.20728238
48	0xbe763596	-0.24043879
49	0x3e789c46	0.24278364
50	0x3e585a1d	0.21128125
51	0x3d75b696	0.05998858
52	0xbe20effe	-0.1571655
53	0x3e685c10	0.22691369
54	0xbe037ced	-0.12840624
55	0xbe59e4d5	-0.21278699
56	0xbe2ee292	-0.17078617
57	0x3e6839d9	0.22678317
58	0xbe87a15f	-0.26490304
59	0x3e848b0e	0.2588734
60	0x3db1305b	0.08651801
61	0x3cd9152a	0.02649935
62	0x3e4de7ad	0.20107909
63	0x3dbd1059	0.09231634
64	0x3db69170	0.08914459
65	0x39bee263	0.00036408295
66	0x3e337292	0.17524174
67	0x3d5179cf	0.051141556
68	0x3e3a2c7e	0.18181035
69	0x3d88fd08	0.06688887
70	0xbe23df69	-0.16003193
71	0x3dbc1411	0.09183515
72	0xbd988624	-0.0744746
73	0x3debe738	0.11518711
74	0xbe695c25	-0.22789057
75	0x3da213a7	0.07913905
76	0xbe52f85f	-0.20602559
77	0xbe22cd6f	-0.15898679
78	0xbd512d94	-0.051068857
79	0x3de16025	0.11004666
80	0xbdbb9a7f	-0.09160327
81	0x3cb2e2e2	0.021836702
82	0x3e90c65c	0.28276336
83	0x3c9a5a04	0.01884175
84	0xbe7b64d0	-0.24550176
85	0x3e4aaf2d	0.19793387
86	0x3e864d88	0.26231027
87	0xbd200929	-0.039071236
88	0x3d83a0f0	0.06427181
89	0x3d39bc9b	0.045345884
90	0x3d588e1d	0.052869905
91	0xbd35870a	-0.044318236
92	0xbe14639d	-0.14491124
93	0xbe47a1ca	-0.19495311
94	0xbe7fdbf0	-0.24986243
95	0xbe1a522b	-0.15070407
96	0xbe376aff	-0.1791191
97	0x3e1b42fe	0.15162274
98	0xbd8ede01	-0.06975938
99	0xbd4b8adf	-0.049692985
100	0x3e338b53	0.17533617
101	0x3d295e0d	0.04134946
102	0xbe6ca8c3	-0.23111252
103	0xbe05e3b7	-0.13075148
104	0xbe74e264	-0.23914486
105	0x3e98a479	0.29812983
106	0xbe685c49	-0.22691454
107	0xbd8bcac2	-0.06825782
108	0xbe14f4ed	-0.14546557
109	0xbde1261b	-0.10993596
110	0x3dd43750	0.103621125
111	0xbe888710	-0.26665545
112	0x3e4c7b34	0.19968873
113	0x3c47c62e	0.012193246
114	0x3e576266	0.2103363
115	0x3da41111	0.08011068
116	0xbaa1bf9c	-0.0012340429
117	0xbaaf61ff	-0.0013380646
118	0x3e54ab32	0.20768431
119	0x3c94118d	0.018074775
120	0x3ce63827	0.028102947
121	0x3e6d8ee6	0.23199043
122	0x3e42da8b	0.1902868
123	0xbe8b446c	-0.2720064
124	0x3bdcfa64	0.006743716
125	0xbe0a74c0	-0.13521099
126	0xbddb5907	-0.1071034
127	0x3d35aa8f	0.04435211
128	0xbe63a381	-0.2223034
129	0x3e886788	0.26641488
130	0xbdc18195	-0.09448544
131	0x3e8b4580	0.27201462
132	0xbe5deca2	-0.216723
133	0x3e2c787a	0.16842833
134	0x3e4916e6	0.19637641
135	0xbd1bbdaa	-0.038022675
136	0xbe87a524	-0.2649318
137	0x3e82046a	0.25393993
138	0x3bf4c83d	0.0074701593
139	0x3aa62d19	0.0012678235
140	0x3e0ec9bf	0.13944148
141	0xbe498b29	-0.19681992
142	0x3d0b7a7b	0.034052353
143	0xbe52a56c	-0.20570916
144	0xbd79afce	-0.060958676
145	0x3e79dfb2	0.24401739
146	0xbe78b7ff	-0.24288939
147	0x3dbe1969	0.0928219
148	0x3e83afc0	0.25720024
149	0xbe277d73	-0.16356449
150	0xbe44a9f1	-0.19205453
151	0x3e826f9d	0.2547578
152	0xbe4950ac	-0.1965968
153	0xbc9e35d8	-0.019312784
154	0x3e41ca88	0.18924916
155	0x3ea2ddd2	0.3180986
156	0x3d10ff13	0.035399508
157	0xbe116251	-0.14197661
158	0x3e7f47e3	0.24929766
159	0x3e597061	0.21234275
160	0x39ebd9b7	0.00044984903
161	0x3e8257f3	0.25457725
162	0x3de396fe	0.11112784
163	0xbd8e02d1	-0.06934131
164	0x3e4c4527	0.19948255
165	0xbe41ac18	-0.18913305
166	0xbd7b2bd2	-0.061321087
167	0x3e1dcb7f	0.15409659
168	0xbe22419d	-0.15845342
169	0x3e729cc5	0.23692615
170	0x3e2d21fb	0.16907494
171	0x3e7b2617	0.24526249
172	0x3e00b224	0.12567955
173	0x3e61f8eb	0.22067611
174	0xbe1d1b97	-0.15342556
175	0x3d0f7bbe	0.03503012
176	0x3e0f4c3f	0.1399393
177	0xbe2037ae	-0.1564624
178	0xbe349af8	-0.17637241
179	0xbe4a662e	-0.19765541
180	0xbdcfaed2	-0.10140766
181	0x3dafc8a5	0.08583192
182	0x3df9c51e	0.121958
183	0x3e74710a	0.23871246
184	0xbdb5e269	-0.08881075
185	0xbe4f4d2f	-0.20244287
186	0xbe10d96e	-0.14145443
187	0x3e63a54e	0.22231027
188	0xbe7886be	-0.2427015
189	0xbe81a71f	-0.25322816
190	0x3e198cee	0.14995167
191	0xbdefd0d5	-0.117097534
192	0xbeab0496	-0.33401936
193	0x3e37b290	0.1793921
194	0x3e0b16b9	0.13582887
195	0x3df9b39e	0.121924624
196	0x3e78b0d9	0.24286212
197	0xbda8ee64	-0.082485944
198	0x3dce0f82	0.10061552
199	0xbe3e1168	-0.18561327
200	0x3c0ac38f	0.008469476
201	0x3d3dfe5a	0.046385147
202	0xbdb9173e	-0.09037636
203	0x3d3d526d	0.046221185
204	0x3e4d868b	0.20070855
205	0x3e249d88	0.16075718
206	0x3e4eba5b	0.20188276
207	0x3cd6c93f	0.026219008
208	0x3e806c12	0.2508245
209	0x3e54a592	0.20766285
210	0x3c7734ba	0.015088255
211	0x3e69d61a	0.2283558
212	0xbdddc36c	-0.108282894
213	0x3da87c19	0.08226795
214	0x3cef80cc	0.02923622
215	0xbe3ac734	-0.18240052
216	0xb9b27f2b	-0.00034045553
217	0xbd81ad22	-0.063318506
218	0xbe138722	-0.14407018
219	0x3e281870	0.16415572
220	0x3e39f7db	0.18160956
221	0xbe7a8c64	-0.24467617
222	0xbe534981	-0.20633508
223	0xbe8962a1	-0.2683306
224	0x3d084c2b	0.033275764
225	0xbe6bdd3a	-0.2303361
226	0xbd14254f	-0.036168393
227	0x3dd11362	0.10208775
228	0x3c7cecd6	0.015437325
229	0x3e8541e1	0.26026824
230	0x3e601ac2	0.21885207
231	0xbe8ecebf	-0.2789211
232	0xbe8d3b12	-0.2758413
233	0x3d1e7fcf	0.038696107
234	0xbd6430e2	-0.05571068
235	0xbd8ec101	-0.06970406
236	0xbe2b4481	-0.16725351
237	0x3e97a5f0	0.29618788
238	0x3dbfb4ac	0.09360632
239	0x3e147c69	0.14500584
240	0x3dba9194	0.09109798
241	0x3e1b59ee	0.15171024
242	0x3e55600a	0.20837417
243	0xbdc9fe5f	-0.098629706
244	0x3e5f7529	0.21822037
245	0x3d6aaf9e	0.057296388
246	0x3e674676	0.22585472
247	0x3d2542ef	0.040347036
248	0x3cd964b1	0.026537271
249	0x3e8cab17	0.2747428
250	0xbd4c4f9a	-0.0498806
251	0xbe2202d6	-0.15821394
252	0xbe00b47d	-0.12568851
253	0xbcceef8a	-0.025260706
254	0xbe18bfb9	-0.14916886
255	0x3e705d48	0.23473084

Sequential_MLP/Dense_2/MatMul f4 [40, 40]
0	0xbe922ce7	-0.28549883
1	0xbe6a2b2a	-0.22868028
2	0x3d6694bb	0.056294184
3	0x3e93905e	0.2882108
4	0xbe025633	-0.12728195
5	0xbe387565	-0.18013532
6	0xbea0e780	-0.3142662
7	0xbe9f9b2b	-0.3117307
8	0x3dc9ef49	0.09860093
9	0x3e3df8f3	0.18551998
10	0xbde3b690	-0.111188054
11	0xbd62200f	-0.055206355
12	0xbe59a27a	-0.21253386
13	0xbd1fb37f	-0.03898954
14	0xbe769edf	-0.24084042
15	0x3e68f8de	0.22751185
16	0xbd148bb6	-0.03626605
17	0xbe22c182	-0.1589413
18	0x3d92367b	0.071392976
19	0xbe828e8b	-0.25499377
20	0x3e5ae3b9	0.21375932
21	0xbea451f6	-0.3209378
22	0x3ea0cd74	0.31406748
23	0xbe607650	-0.21920133
24	0xbe95fc50	-0.29294062
25	0x3dc86889	0.097855635
26	0x3da60df0	0.08108127
27	0xbdc0fa31	-0.0942272
28	0x3c6e47be	0.014543472
29	0xbdd713cf	-0.10501825
30	0xbc60ca26	-0.013720071
31	0xbdc35f37	-0.09539645
32	0xbd6dc759	-0.05805144
33	0xbe492e09	-0.19646467
34	0xbdeaab9b	-0.114585124
35	0xbd46078c	-0.04834704
36	0x3e827f48	0.25487733
37	0xbd3d6dc4	-0.04624726
38	0x3e4ba845	0.19888408
39	0xbdce0bd9	-0.100608535
40	0xbe0521d3	-0.13001184
41	0xbcda2c0d	-0.026632333
42	0x3ccc32a2	0.024926487
43	0xbdb91019	-0.090362735
44	0x3d8eda71	0.06975258
45	0xbe977957	-0.29584762
46	0x3e71b5c4	0.23604494
47	0xbe3c85cf	-0.18410419
48	0x3e1084fc	0.1411323
49	0x3e368261	0.17823173
50	0x3e754e82	0.2395573
51	0xbe5fac57	-0.21843086
52	0xbe541d48	-0.20714295
53	0xbd9d977c	-0.07694909
54	0xbd566cd9	-0.0523499
55	0xbe0428af	-0.12906145
56	0xbda88f8b	-0.08230504
57	0xbe1f3aec	-0.1554982
58	0x3e840deb	0.2579187
59	0xbdbec66f	-0.09315192
60	0x3e331040	0.17486668
61	0x3e177a39	0.14792718
62	0x3db33dee	0.087520465
63	0xbdc6525f	-0.0968368
64	0x3db25487	0.087075286
65	0xbe25eba5	-0.16203173
66	0x3c841b74	0.016126372
67	0xbdacaec3	-0.08431771
68	0x3e1a6681	0.15078165
69	0xbe087748	-0.13326752
70	0x3d820ed0	0.063504815
71	0x3e2e17a2	0.17001203
72	0xbe560bc5	-0.20902927
73	0x3d85cad0	0.06532824
74	0xbe94fd9e	-0.29099745
75	0xbdc363e2	-0.095405355
76	0x3e292121	0.16516544
77	0xbdbbc832	-0.091690436
78	0x3d2e7e47	0.042600896
79	0x3dd802c8	0.105474055
80	0xbd87640e	-0.06610881
81	0xbe4d0748	-0.20022309
82	0xbb7d0a66	-0.0038610934
83	0xbe886cad	-0.26645413
84	0x3e3590bf	0.17730998
85	0xbdb88752	-0.09010185
86	0x3cff80a6	0.031189274
87	0xbdbcfc0a	-0.0922776
88	0xbe89e262	-0.2693053
89	0xbe685b42	-0.22691062
90	0xbe7c6e94	-0.24651557
91	0xbe7b2467	-0.24525605
92	0x3e6da7cf	0.23208545
93	0x3d069003	0.032852184
94	0x3e4876e5	0.19576605
95	0xbe05ae80	-0.13054848
96	0xbde5c5df	-0.112193815
97	0xbce46a84	-0.027882822
98	0x3de5cf4c	0.11221179
99	0x3de25802	0.110519424
100	0xbe101867	-0.14071809
101	0xbe6e6035	-0.23278888
102	0x3db2220e	0.08697902
103	0x3e9a67c6	0.30157298
104	0xbdf70a00	-0.12062454
105	0xbe157839	-0.14596643
106	0x3d6ce4f8	0.05783555
107	0x3e40354c	0.18770331
108	0xbdf0c176	-0.1175565
109	0x3d8ebf31	0.069700606
110	0x3d870403	0.06592562
111	0x3bdbbf70	0.0067061707
112	0x3e1ae10b	0.1512491
113	0xbd755841	-0.05989862
114	0x3e7ffb9b	0.24998324
115	0x3d3ac845	0.04560115
116	0x3dfae65b	0.12250968
117	0xbda46e64	-0.08028868
118	0xbdabc215	-0.083866276
119	0xbce3ca49	-0.027806418
120	0xbe468291	-0.19385745
121	0x3d7b325a	0.061327316
122	0x3e40fe63	0.18847041
123	0xbc7a0069	-0.015258887
124	0x3e69538d	0.22785778
125	0x3ea65d40	0.3249302
126	0xbd5c94a7	-0.053852703
127	0xbd49c514	-0.049260214
128	0xbc88fe17	-0.016722722
129	0x3cd629a3	0.0261429
130	0xbdc3cd16	-0.095606014
131	0x3e684b7b	0.22685044
132	0xbea628a0	-0.3245287
133	0xbd11b8c4	-0.035576597
134	0x3e6f37e7	0.23361169
135	0x3da40c2c	0.08010134
136	0xbe2ee0b9	-0.17077912
137	0xbdaad785	-0.08341888
138	0xbd68cc0f	-0.05683523
139	0x3e66ca96	0.22538218
140	0xbb90b6a2	-0.004416303
141	0x3e0b9ac6	0.1363326
142	0xbd8a80c0	-0.06762838
143	0xbe8c4382	-0.27395254
144	0xbe4da7f9	-0.20083608
145	0xbe55b81b	-0.20871012
146	0xbe07e46a	-0.13270727
147	0x3b6e7625	0.0036386338
148	0xbdd15852	-0.10221924
149	0x3e6ec0b2	0.23315695
150	0x3df5fb66	0.12010841
151	0xbe83fd23	-0.25779065
152	0x3d4e055f	0.05029809
153	0xbdd44c90	-0.10366166
154	0x3d80c414	0.06287399
155	0x3e818a65	0.253009
156	0x3da2bc15	0.0794603
157	0xbeb2afd1	-0.34899762
158	0x3eb6c8e1	0.35700133
159	0x3e93f9c1	0.28901485
160	0x3e754a31	0.23954083
161	0x3d994e49	0.07485635
162	0xbe10ffd9	-0.14160098
163	0xbe2120c4	-0.15735155
164	0x3c2abf26	0.01042155
165	0xbdafcee8	-0.08584386
166	0x3e209e6b	0.15685432
167	0xbd1eef6b	-0.038802546
168	0xbe2b68d8	-0.16739213
169	0x3de9e69e	0.1142094
170	0xbe2e29d2	-0.1700814
171	0xbd2af011	-0.04173285
172	0xbc03a495	-0.008034845
173	0xbe69f282	-0.22846416
174	0xbdcde0db	-0.100526534
175	0x3e5df6b5	0.21676143
176	0xbe18866d	-0.1489503
177	0xbe3275c2	-0.17427734
178	0x3e7a655a	0.24452725
179	0xbb1b949f	-0.0023739708
180	0x3e6590bb	0.22418492
181	0x3e262b89	0.16227545
182	0xbd35289d	-0.044228185
183	0xbe7c4d5f	-0.2463889
184	0xbe683dc8	-0.22679818
185	0x3e25f354	0.16206104
186	0xbe54d30b	-0.20783632
187	0xbe92b987	-0.2865717
188	0x3e3b7190	0.1830504
189	0x3e3a431a	0.1818966
190	0xbe473c12	-0.19456509
191	0x3e68790f	0.2270243
192	0x3e395016	0.18096957
193	0x3e7fb872	0.24972704
194	0xbd0738d5	-0.033013184
195	0x3e66a10a	0.22522369
196	0xbdab27cc	-0.083572
197	0x3d2aab13	0.041667055
198	0x3d9ccb50	0.07655966
199	0x3e2ebc09	0.17063917
200	0x3e142513	0.14467268
201	0xbe1c7e4a	-0.1528255
202	0xbe43ddbc	-0.19127554
203	0x3e804e0e	0.2505955
204	0xbc625e70	-0.013816461
205	0x3dbcba3f	0.09215211
206	0xbde9661d	-0.1139643
207	0x3e59a655	0.21254857
208	0xbd94971a	-0.07255383
209	0x3e8711af	0.2638068
210	0xbd2dc370	-0.04242271
211	0x3d8bdc1a	0.068290904
212	0x3d6be928	0.057595402
213	0x3dfa35f2	0.122173205
214	0xbe875f17	-0.26439735
215	0x3e77dddd	0.24205728
216	0x3de17d02	0.110101715
217	0xbe6f4f3d	-0.23370071
218	0xbe196d34	-0.14983064
219	0xbe4db4fd	-0.20088573
220	0x3e89dd4e	0.26926655
221	0xbe130d4f	-0.14360546
222	0xbd8ef80a	-0.069809034
223	0x3ea44e1c	0.32090843
224	0x3e3bbd7f	0.18334006
225	0x3df9cfeb	0.1219786
226	0xbdb89657	-0.0901305
227	0x3e86736d	0.26259938
228	0x3e398dd3	0.18120508
229	0xbe610dd0	-0.21977925
230	0xbe59dc7b	-0.21275513
231	0x3e6f40ef	0.23364614
232	0xbe910867	-0.28326723
233	0x3e370166	0.17871627
234	0x3b15d445	0.0022862118
235	0xbe27c49d	-0.16383596
236	0xbe16ef86	-0.14739808
237	0xbdf686f8	-0.12037462
238	0xbda29e7a	-0.07940383
239	0xbe88f978	-0.2675283
240	0xbe4198ba	-0.18905917
241	0xbe52af08	-0.20574582
242	0x3eaf018c	0.34180868
243	0x3e3b1a8e	0.18271849
244	0x3d9fffaa	0.07812436
245	0x3e889da0	0.26682758
246	0x3e167d26	0.14696178
247	0x3e176485	0.14784439
248	0x3e3be36a	0.1834847
249	0xbe2bb01e	-0.16766402
250	0x3e9519ec	0.2912134
251	0x3e14b7b7	0.14523207
252	0x3dc95629	0.09830887
253	0xbe0127b0	-0.12612796
254	0x3cfbc57b	0.030733814
255	0x3de3915f	0.11111712

Sequential_MLP/Output_Layer/MatMul f4 [1, 40]
0	0x3e879ec1	0.26488307
1	0xbe813154	-0.25232947
2	0xbebfe2e4	-0.3747779
3	0x3e898381	0.26858142
4	0xbe6dac47	-0.2321025
5	0xbed251bd	-0.41077986
6	0x3e8faa4c	0.28059614
7	0xbd8e36c0	-0.069440365
8	0xbd839bcc	-0.064262
9	0xbe349b4c	-0.17637366
10	0x3ead54ba	0.33853704
11	0x3e860ee5	0.2618324
12	0xbc86a61c	-0.016436629
13	0xbecde0f4	-0.40210688
14	0x3d6154df	0.05501258
15	0x3d82c572	0.06385316
16	0x3e1e7fa4	0.15478379
17	0xbec34797	-0.38140556
18	0xbd941741	-0.07230998
19	0xbeb42032	-0.35180813
20	0x3e9f0ab7	0.31062862
21	0xbe87b869	-0.2650788
22	0x3ddceb12	0.107870236
23	0x3e250de6	0.16118583
24	0x3e96f0ff	0.2948074
25	0xbeb8c760	-0.3608961
26	0x3e441b2f	0.19150995
27	0x3e60bdd1	0.21947409
28	0x3e3fde99	0.18737258
29	0x3de36946	0.11104064
30	0xbd8fd44c	-0.07022914
31	0x3ea2bca5	0.3178455
32	0xbea32c1b	-0.31869587
33	0xbe1d06e3	-0.15334658
34	0xbed2e3e4	-0.41189492
35	0xbe5fe8fc	-0.2186622
36	0x3e58a675	0.21157248
37	0xbe818716	-0.25298375
38	0xbeb67041	-0.35632518
39	0xbe911831	-0.2833877
